…
 head) if init is not None: apply_init(model[1], init) return model The @delegate macro tells fastai to show the parameters of any **kwargs (which we would be using in the create_body) during function introspection. Let’s do a quick test to check if our custom model works. # num of classes n_out = 2 model = create_timm_model(\"efficientnet_b3a\", n_out) Downloading: \"https://github.com/rwightman/pytorch-image-models/releases/ download/v0.1-weights/efficientnet_b3_ra2-cf984f9c.pth\" to /root/.cache/ torch/hub/checkpoints/efficientnet_b3_ra2-cf984f9c.pth L(model.children()) (#2) [Sequential( (0): Conv2d(1, 40, kernel_size=(3, 3), stride=(2, 2), padding=(1, 1), bias=False) (1): BatchNorm2d(40, eps=1e-05, momentum=0.1, affine=True, track_running_stats=True) (2): SiLU(inplace=True) (3): Sequential( (0): Sequential( (0): DepthwiseSeparableConv( (conv_dw): Conv2d(40, 40, kernel_size=(3, 3), stride=(1, 1), padding=(1, 1), groups=40, bias=False) (bn1): BatchNorm2d(40, eps=1e-05, momentum=0.1, affine=True, track_running_stats=True) (act1): SiLU(inplace=True) (se): SqueezeExcite( (conv_reduce): Conv2d(40, 10, kernel_size=(1, 1), stride=(1, 1)) (act1): SiLU(inplace=True) (conv_expand): Conv2d(10, 40, kernel_size=(1, 1), stride=(1, 1)) (gate): Sigmoid() ) (conv_pw): Conv2d(40, 24, kernel_size=(1, 1), stride=(1, 1), bias=False) (bn2): BatchNorm2d(24, eps=1e-05, momentum=0.1, affine=True, track_running_stats=True) (act2): Identity() ) (1): DepthwiseSeparableConv( (conv_dw): Conv2d(24, 24, kernel_size=(3, 3), stride=(1, 1), padding=(1, 1), groups=24, bias=False) (bn1): BatchNorm2d(24, eps=1e-05, momentum=0.1, affine=True, track_running_stats=True) (act1): SiLU(inplace=True) (se): SqueezeExcite( (conv_reduce): Conv2d(24, 6, kernel_size=(1, 1), stride=(1, 1)) (act1): SiLU(inplace=True) (conv_expand): Conv2d(6, 24, kernel_size=(1, 1), stride=(1, 1)) (gate): Sigmoid() ) (conv_pw): Conv2d(24, 24, kernel_size=(1, 1), stride=(1, 1), bias=False) (bn2): BatchNorm2d(24, eps=1e-05, momentum=0.1, affine=True, track_running_stats=True) (act2): Identity() ) ) (1): Sequential( (0): InvertedResidual( (conv_pw): Conv2d(24, 144, kernel_size=(1, 1), stride=(1, 1), bias=False) (bn1): BatchNorm2d(144, eps=1e-05, momentum=0.1, affine=True, track_running_stats=True) (act1): SiLU(inplace=True) (conv_dw): Conv2d(144, 144, kernel_size=(3, 3), stride=(2, 2), padding=(1, 1), groups=144, bias=False) (bn2): BatchNorm2d(144, eps=1e-05, momentum=0.1, affine=True, track_running_stats=True) (act2): SiLU(inplace=True) (se): SqueezeExcite( (conv_reduce): Conv2d(144, 6, kernel_size=(1, 1), stride=(1, 1)) (act1): SiLU(inplace=True) (conv_expand): Conv2d(6, 144, kernel_size=(1, 1), stride=(1, 1)) (gate): Sigmoid() ) (conv_pwl): Conv2d(144, 32, kernel_size=(1, 1), stride=(1, 1), bias=False) (bn3): BatchNorm2d(32, eps=1e-05, momentum=0.1, affine=True, track_running_stats=True) ) (1): InvertedResidual( (conv_pw): Conv2d(32, 192, kernel_size=(1, 1), stride=(1, 1), bias=False) (bn1): BatchNorm2d(192, eps=1e-05, momentum=0.1, affine=True, track_running_stats=True) (act1): SiLU(inplace=True) (conv_dw): Conv2d(192, 192, kernel_size=(3, 3), stride=(1, 1), padding=(1, 1), groups=192, bias=False) (bn2): BatchNorm2d(192, eps=1e-05, momentum=0.1, affine=True, track_running_stats=True) (act2): SiLU(inplace=True) (se): SqueezeExcite( (conv_reduce): Conv2d(192, 8, kernel_size=(1, 1), stride=(1, 1)) (act1): SiLU(inplace=True) (conv_expand): Conv2d(8, 192, kernel_size=(1, 1), stride=(1, 1)) (gate): ","date":"2021-10-12","objectID":"/extending-fastai-for-custom-task/:10:2","series":null,"tags":["Deep Learning","Fastai"],"title":"Extending Fastai For Custom Task","uri":"/extending-fastai-for-custom-task/#create_timm_model"},{"categories":["Deep Learning"],"content":"timm_learner #export @delegates(create_timm_model) def timm_learner(dls, arch,
…
